…
To enable them in other operations, rebuild TensorFlow with the appropriate compiler flags.
2022-07-03 01:57:46.159607: I tensorflow/core/common_runtime/gpu/gpu_device.cc:1532] Created device /job:localhost/replica:0/task:0/device:GPU:0 with 21670 MB memory:  -> device: 0, name: NVIDIA GeForce RTX 3090, pci bus id: 0000:01:00.0, compute capability: 8.6
Found 8000 images belonging to 2 classes.
Found 2000 images belonging to 2 classes.
Model: "sequential"
_________________________________________________________________
 Layer (type)                Output Shape              Param #
=================================================================
 conv2d (Conv2D)             (None, 21, 21, 32)        896

 max_pooling2d (MaxPooling2D  (None, 10, 10, 32)       0
 )

 conv2d_1 (Conv2D)           (None, 3, 3, 32)          9248

 max_pooling2d_1 (MaxPooling  (None, 1, 1, 32)         0
 2D)

 flatten (Flatten)           (None, 32)                0

 dense (Dense)               (None, 128)               4224

 dense_1 (Dense)             (None, 1)                 129

=================================================================
Total params: 14,497
Trainable params: 14,497
Non-trainable params: 0
_________________________________________________________________
{'cats': 0, 'dogs': 1}
(64, 64, 3)
{'cats': 0, 'dogs': 1}
(64, 64, 3)
Epoch 1/100
2022-07-03 01:58:00.536318: I tensorflow/stream_executor/cuda/cuda_dnn.cc:384] Loaded cuDNN version 8201
2022-07-03 01:58:01.529878: E tensorflow/core/platform/windows/subprocess.cc:287] Call to CreateProcess failed. Error code: 2, command: '"ptxas.exe" "--version"'
…
